…
 'target_weights': None,
 'task_names': ['dm300'],
 'test': False,
 'test_fold_index': None,
 'train_data_size': None,
 'undirected': False,
 'use_input_features': False,
 'val_fold_index': None,
 'warmup_epochs': 2.0}
Setting molecule featurization parameters to default.
Loading data
Number of tasks = 1
Fold 0
Splitting data with seed 0
Total size = 695 | train size = 556 | val size = 139 | test size = 337
Fitting scaler
Building model 0
MoleculeModel(
  (encoder): MPN(
    (encoder): ModuleList(
      (0): MPNEncoder(
        (dropout_layer): Dropout(p=0.0, inplace=False)
        (act_func): ReLU()
        (W_i): Linear(in_features=147, out_features=300, bias=False)
        (W_h): Linear(in_features=300, out_features=300, bias=False)
        (W_o): Linear(in_features=433, out_features=300, bias=True)
      )
    )
  )
  (ffn): Sequential(
    (0): Dropout(p=0.0, inplace=False)
    (1): Linear(in_features=300, out_features=300, bias=True)
    (2): ReLU()
    (3): Dropout(p=0.0, inplace=False)
    (4): Linear(in_features=300, out_features=1, bias=True)
  )
)
Number of parameters = 355,201
Moving model to cuda
Epoch 0
Loss = 9.0346e-01, PNorm = 34.0212, GNorm = 1.3215, lr_0 = 5.5000e-04
Validation rmse = 0.313022
Epoch 1
Loss = 6.6487e-01, PNorm = 34.0699, GNorm = 1.2499, lr_0 = 1.0000e-03
Validation rmse = 0.253697
Epoch 2
Loss = 5.7739e-01, PNorm = 34.1458, GNorm = 17.5463, lr_0 = 9.6108e-04
Validation rmse = 0.226493
…
 'target_weights': None,
 'task_names': ['dm300'],
 'test': False,
 'test_fold_index': None,
 'train_data_size': None,
 'undirected': False,
 'use_input_features': False,
 'val_fold_index': None,
 'warmup_epochs': 2.0}
Setting molecule featurization parameters to default.
Loading data
Number of tasks = 1
Fold 0
Splitting data with seed 0
Total size = 695 | train size = 688 | val size = 7 | test size = 337
Fitting scaler
Building model 0
MoleculeModel(
  (encoder): MPN(
    (encoder): ModuleList(
      (0): MPNEncoder(
        (dropout_layer): Dropout(p=0.0, inplace=False)
        (act_func): ReLU()
        (W_i): Linear(in_features=147, out_features=400, bias=False)
        (W_h): Linear(in_features=400, out_features=400, bias=False)
        (W_o): Linear(in_features=533, out_features=400, bias=True)
      )
    )
  )
  (ffn): Sequential(
    (0): Dropout(p=0.0, inplace=False)
    (1): Linear(in_features=400, out_features=400, bias=True)
    (2): ReLU()
    (3): Dropout(p=0.0, inplace=False)
    (4): Linear(in_features=400, out_features=400, bias=True)
    (5): ReLU()
    (6): Dropout(p=0.0, inplace=False)
    (7): Linear(in_features=400, out_features=1, bias=True)
  )
)
Number of parameters = 754,001
Moving model to cuda
Epoch 0
Loss = 9.5179e-01, PNorm = 43.2641, GNorm = 3.7596, lr_0 = 4.8077e-04
Validation rmse = 0.361506
Epoch 1
Loss = 6.9682e-01, PNorm = 43.3076, GNorm = 8.7747, lr_0 = 8.6154e-04
Validation rmse = 0.372762
Epoch 2
Loss = 4.4965e-01, PNorm = 43.3670, GNorm = 2.0051, lr_0 = 9.8184e-04
Loss = 5.5475e-01, PNorm = 43.4429, GNorm = 8.3434, lr_0 = 9.5231e-04
…
