…
 'target_weights': None,
 'task_names': ['dm300'],
 'test': False,
 'test_fold_index': None,
 'train_data_size': None,
 'undirected': False,
 'use_input_features': False,
 'val_fold_index': None,
 'warmup_epochs': 2.0}
Setting molecule featurization parameters to default.
Loading data
Number of tasks = 1
Fold 0
Splitting data with seed 0
Total size = 1,041 | train size = 624 | val size = 208 | test size = 209
Fitting scaler
Building model 0
MoleculeModel(
  (encoder): MPN(
    (encoder): ModuleList(
      (0): MPNEncoder(
        (dropout_layer): Dropout(p=0.0, inplace=False)
        (act_func): ReLU()
        (W_i): Linear(in_features=147, out_features=300, bias=False)
        (W_h): Linear(in_features=300, out_features=300, bias=False)
        (W_o): Linear(in_features=433, out_features=300, bias=True)
      )
    )
  )
  (ffn): Sequential(
    (0): Dropout(p=0.0, inplace=False)
    (1): Linear(in_features=300, out_features=300, bias=True)
    (2): ReLU()
    (3): Dropout(p=0.0, inplace=False)
    (4): Linear(in_features=300, out_features=1, bias=True)
  )
)
Number of parameters = 355,201
Moving model to cuda
Epoch 0
Loss = 9.5057e-01, PNorm = 34.0172, GNorm = 3.6498, lr_0 = 5.1250e-04
Validation rmse = 0.318036
Validation mse = 0.101147
Validation r2 = 0.215060
Epoch 1
Loss = 7.1062e-01, PNorm = 34.0561, GNorm = 3.3124, lr_0 = 9.2500e-04
Validation rmse = 0.400948
Validation mse = 0.160760
Validation r2 = -0.247554
…
 'target_weights': None,
 'task_names': ['dm300'],
 'test': False,
 'test_fold_index': None,
 'train_data_size': None,
 'undirected': False,
 'use_input_features': False,
 'val_fold_index': None,
 'warmup_epochs': 2.0}
Setting molecule featurization parameters to default.
Loading data
Number of tasks = 1
Fold 0
Splitting data with seed 0
Total size = 1,041 | train size = 624 | val size = 208 | test size = 209
Fitting scaler
Building model 0
MoleculeModel(
  (encoder): MPN(
    (encoder): ModuleList(
      (0): MPNEncoder(
        (dropout_layer): Dropout(p=0.0, inplace=False)
        (act_func): ReLU()
        (W_i): Linear(in_features=147, out_features=400, bias=False)
        (W_h): Linear(in_features=400, out_features=400, bias=False)
        (W_o): Linear(in_features=533, out_features=400, bias=True)
      )
    )
  )
  (ffn): Sequential(
    (0): Dropout(p=0.0, inplace=False)
    (1): Linear(in_features=400, out_features=400, bias=True)
    (2): ReLU()
    (3): Dropout(p=0.0, inplace=False)
    (4): Linear(in_features=400, out_features=400, bias=True)
    (5): ReLU()
    (6): Dropout(p=0.0, inplace=False)
    (7): Linear(in_features=400, out_features=1, bias=True)
  )
)
Number of parameters = 754,001
Moving model to cuda
Epoch 0
Loss = 9.8662e-01, PNorm = 43.2627, GNorm = 2.9282, lr_0 = 5.1250e-04
Validation rmse = 0.317521
Validation mse = 0.100819
Validation r2 = 0.217604
Epoch 1
Loss = 7.3697e-01, PNorm = 43.2988, GNorm = 2.7664, lr_0 = 9.2500e-04
Validation rmse = 0.355090
Validation mse = 0.126089
Validation r2 = 0.021503
…
